chosen_model.pt (torch_old, 570484 bytes, 10 tensors)

embedding.weight f4 [1321, 100]
0.0 0.0 0.0 0.0 0.0 0.0 0.0 0.0
0.0 0.0 0.0 0.0 0.0 0.0 0.0 0.0
0.0 0.0 0.0 0.0 0.0 0.0 0.0 0.0
0.0 0.0 0.0 0.0 0.0 0.0 0.0 0.0
0.0 0.0 0.0 0.0 0.0 0.0 0.0 0.0
0.0 0.0 0.0 0.0 0.0 0.0 0.0 0.0
0.0 0.0 0.0 0.0 0.0 0.0 0.0 0.0
0.0 0.0 0.0 0.0 0.0 0.0 0.0 0.0
0.0 0.0 0.0 0.0 0.0 0.0 0.0 0.0
0.0 0.0 0.0 0.0 0.0 0.0 0.0 0.0
0.0 0.0 0.0 0.0 0.0 0.0 0.0 0.0
0.0 0.0 0.0 0.0 0.0 0.0 0.0 0.0
0.0 0.0 0.0 0.0 0.035051275 0.1336649 0.23777741 -0.07045021
-0.18861122 0.03121362 -0.11283914 -0.021180674 -0.2592863 0.067536175 0.021012548 0.13307899
0.12333326 0.021196969 -0.090458006 -0.03537044 -0.00031047125 0.013805962 0.057662427 0.1850092
-0.053435966 0.09977977 0.22528933 0.13150394 -0.11855317 0.023742272 -0.08160876 -0.11266752
-0.2386951 -0.17702138 -0.103114486 0.12298393 -0.06307835 0.03765108 0.24545291 0.14629833
-0.0072862376 -0.06062546 -0.13269502 -0.01908305 -0.26739886 -0.13343132 -0.055903874 -0.03774078
-0.103786394 0.12477082 -0.06190451 -0.045974273 0.12659895 -0.28853208 -0.07945359 0.033206053
0.06500655 0.068824776 -0.04652501 -0.15441984 -0.18315259 -0.1005907 0.20046991 0.20070398
0.13178886 0.27064934 0.019885996 0.12430585 0.06643564 0.025046231 0.010626959 -0.01805329
-0.082278624 -0.26841542 -0.035893578 -0.05509301 -0.3127965 -0.12752517 0.17954205 0.018197425
0.102036834 -0.007188937 -0.027185349 0.1601452 -0.0816376 -0.07621114 0.061234497 -0.15722942
-0.12547499 -0.052861214 0.054535657 -0.056246687 0.16458936 -0.04938781 0.066756256 -0.041640684
0.019071179 -0.2492347 -0.27994555 -0.17939627 0.10778389 -0.017094102 0.07271572 0.08619458
-0.42895555 0.23363204 0.42025676 -0.73311806 -0.506674 -0.019470507 0.2003927 0.17278945
0.4962662 -0.021394692 0.33281144 -0.46778402 0.24450204 0.106636845 0.55745894 -0.35077918
0.109894775 0.048555117 -0.5673637 0.17202559 -0.17618729 -0.15560964 0.33560613 0.47373447
0.76167494 0.12522465 0.25120232 -0.75496185 0.20094566 -0.54399127 -0.20156792 0.7167342
-0.3232579 -0.07246155 -0.20932318 0.49958536 0.039434608 0.3556309 -0.057711605 -0.56686836
-0.26925695 -0.21653274 -0.17027444 -0.37437516 -0.34902444 -0.46202686 0.35445943 -0.93988395
-0.19428098 -0.48113218 -0.10859846 -0.26038882 0.26158634 1.3942608 -0.07732501 -2.7675605
00000000: 0000 0000 0000 0000 0000 0000 0000 0000
00000010: 0000 0000 0000 0000 0000 0000 0000 0000
00000020: 0000 0000 0000 0000 0000 0000 0000 0000
00000030: 0000 0000 0000 0000 0000 0000 0000 0000
00000040: 0000 0000 0000 0000 0000 0000 0000 0000
00000050: 0000 0000 0000 0000 0000 0000 0000 0000
00000060: 0000 0000 0000 0000 0000 0000 0000 0000
00000070: 0000 0000 0000 0000 0000 0000 0000 0000
00000080: 0000 0000 0000 0000 0000 0000 0000 0000
00000090: 0000 0000 0000 0000 0000 0000 0000 0000
000000a0: 0000 0000 0000 0000 0000 0000 0000 0000
000000b0: 0000 0000 0000 0000 0000 0000 0000 0000
000000c0: 0000 0000 0000 0000 0000 0000 0000 0000
000000d0: 0000 0000 0000 0000 0000 0000 0000 0000
000000e0: 0000 0000 0000 0000 0000 0000 0000 0000
000000f0: 0000 0000 0000 0000 0000 0000 0000 0000
00000100: 0000 0000 0000 0000 0000 0000 0000 0000
00000110: 0000 0000 0000 0000 0000 0000 0000 0000
00000120: 0000 0000 0000 0000 0000 0000 0000 0000
00000130: 0000 0000 0000 0000 0000 0000 0000 0000
00000140: 0000 0000 0000 0000 0000 0000 0000 0000
00000150: 0000 0000 0000 0000 0000 0000 0000 0000
00000160: 0000 0000 0000 0000 0000 0000 0000 0000
00000170: 0000 0000 0000 0000 0000 0000 0000 0000
00000180: 0000 0000 0000 0000 0000 0000 0000 0000
00000190: ed91 0f3d 74df 083e ec7b 733e 3348 90bd
000001a0: 4d23 41be b5b3 ff3c 3518 e7bd 1883 adbc
000001b0: 2dc1 84be 6850 8a3d 8222 ac3c dc45 083e
000001c0: 2696 fc3d 44a5 ad3c 0c42 b9bd 98e0 10bd
000001d0: bfc6 a2b9 6732 623c 702f 6c3d 0d73 3d3e
000001e0: acdf 5abd 5659 cc3d 3fb2 663e f8a8 063e
000001f0: 01cc f2bd 277f c23c 7e22 a7bd 3bbe e6bd
00000200: 7d6c 74be 1845 35be b02d d3bd 00df fb3d
00000210: 392f 81bd 0538 1a3d 0258 7b3e 3bcf 153e
00000220: 64c1 eebb 6752 78bd 34e1 07be 0e54 9cbc
00000230: 81e8 88be 38a2 08be 76fb 64bd 1396 1abd
00000240: f68d d4bd d887 ff3d 958f 7dbd 854f 3cbd
00000250: 28a3 013e 7aba 93be 90b8 a2bd 1203 083d
00000260: 2722 853d 01f4 8c3d 0291 3ebd 3c20 1ebe
00000270: 5a8c 3bbe 7f02 cebd fc47 4d3e 5885 4d3e
00000280: a9f3 063e 8d92 8a3e f5e7 a23c 1194 fe3d
00000290: 690f 883d c12d cd3c b21c 2e3c 7ee4 93bc
000002a0: b281 a8bd bf6d 89be 2505 13bd 35a9 61bd
000002b0: dd26 a0be f595 02be dfd9 373e c412 953c
000002c0: b0f8 d03d 2d91 ebbb cfb3 debc 1afd 233e
000002d0: 9d31 a7bd 9614 9cbd 06d1 7a3d c000 21be
000002e0: 847c 00be 0085 58bd c860 5f3d ed62 66bd
000002f0: 1d8a 283e df4a 4abd 81b7 883d 6c8f 2abd
00000300: 293b 9c3c 6237 7fbe 0655 8fbe a8b3 37be
00000310: cdbd dc3d ee08 8cbc fbeb 943d c986 b03d
00000320: 10a0 dbbe 3d3d 6f3e e52b d73e a0ad 3bbf
00000330: 63b5 01bf 9d80 9fbc be33 4d3e b8ef 303e
00000340: 9a16 fe3e ec43 afbc 4366 aa3e 6381 efbe
00000350: be5e 7a3e 6b64 da3d a1b5 0e3f 5499 b3be
00000360: 8310 e13d bbe1 463d bf3e 11bf 7a27 303e
00000370: 716a 34be 2258 1fbe 91d4 ab3e 538d f23e
00000380: 21fd 423f e43a 003e 979d 803e 2e45 41bf
00000390: b3c4 4d3e 0343 0bbf d267 4ebe e47b 373f
000003a0: 0f82 a5be b966 94bd d158 56be a7c9 ff3e
000003b0: 2f86 213d 4115 b63e 0163 6cbd 491e 11bf
000003c0: 0cdc 89be c2ba 5dbe 6c5c 2ebe 1aae bfbe
000003d0: 55b3 b2be c98e ecbe b57b b53e 3c9c 70bf
000003e0: 98f1 46be f556 f6be df68 debd af51 85be
000003f0: a5ee 853e 2377 b23f 935c 9ebd b61f 31c0

convs.0.weight f4 [10, 1, 1, 100]
-0.01774639 0.0056319293 0.011646201 -0.05152482 0.04840225 -0.07331937 -0.13422008 0.2149958
-0.0084014125 0.0831506 0.056383032 -0.06199963 0.09923959 -0.08931258 -0.17623861 0.17077954
-0.14174674 -0.059686143 0.01502371 -0.006063432 0.125914 0.072304815 0.040685594 0.036777407
0.005161683 -0.058677442 -0.06764848 -0.025357492 0.027315889 -0.029577835 -0.18656264 -0.11402737
0.049359195 -0.02493411 -0.043047108 0.108954094 -0.34057093 0.0026922887 0.111077964 -0.02114525
0.2549414 -0.017918184 -0.008181342 0.014486566 -0.027459478 0.012986161 -0.12815285 -0.021626694
0.03698082 -0.011227881 0.04690794 -0.10252335 -0.032521825 -0.059383713 -0.021246323 -0.08653121
0.2776786 0.11055807 0.08120208 0.10827186 -0.31495723 -0.039761737 0.06394392 -0.09090188
-0.14866737 -0.018727971 0.17821963 0.0032223156 0.27140993 -0.07830214 -0.18896672 0.011508272
0.14153995 0.10347921 -0.20091417 -0.041407473 -0.05354654 0.0021103104 0.10578813 -0.10827409
-0.23708436 0.20935883 -0.022113089 -0.25956196 -0.105621524 0.042294364 0.051064603 -0.2623028
0.196997 -0.08227829 0.14948699 -0.16436626 -0.04144036 0.050504927 0.25725237 -0.22361904
-0.037566803 0.0634325 0.041479133 0.112478234 0.16120721 -0.099678144 -0.13401188 0.10488554
0.10989551 -0.09174153 -0.16534698 0.090557255 -0.100510955 -0.14247297 -0.19006072 -0.32893565
0.033347055 -0.13134488 -0.057376947 0.18658276 -0.12064356 0.18029799 0.11307231 -0.0056208344
0.12318548 -0.16277498 0.010713809 0.0684127 -0.0020934746 0.017342683 -0.122261524 0.13766868
-0.10597151 0.0056939917 -0.24556856 0.045667022 -0.29124257 0.004084578 0.16950494 -0.16315746
-0.104170695 -0.022550972 -0.21053949 0.014984774 -0.11288341 -0.09144908 -0.145149 -0.049564213
-0.0052249287 -0.13258219 -0.13341138 -0.0252942 0.09898659 0.12645856 0.2969598 -0.06981809
0.11938291 0.056505337 0.29513493 -0.06938678 0.1776283 -0.21657866 -0.06715693 0.12286924
0.16094147 -0.08190568 -0.1110911 -0.041922905 -0.04440705 0.005791983 -0.2420907 0.08968219
-0.06905072 0.055989943 0.08814453 0.040939804 -0.009879628 0.1221774 -0.17401332 0.14973894
0.04230795 0.14022923 -0.019581523 -0.035420947 -0.0018438165 -0.12429703 0.075376004 0.13315032
-0.12003133 0.24604999 0.009907534 -0.124178685 0.119869426 0.13179806 -0.11116273 -0.06894062
-0.12709263 -0.10309743 0.068453126 -0.05597285 0.24220486 -0.059301738 0.022614032 -0.15960531
0.03759815 0.13576692 0.1048639 -0.08808589 -0.06729863 -0.072752714 -0.13121785 0.07277778
0.07386142 -0.08683956 -0.02453586 0.043079287 0.02936574 -0.0886998 0.035546985 -0.053843208
-0.036988083 0.04590685 -0.0062517305 -0.0014092873 0.098988086 0.023322348 -0.033850722 -0.10119921
-0.163957 -0.11211658 -0.10442203 -0.11282608 0.07783021 -0.11081263 -0.042438615 0.09621727
-0.10068745 0.0534013 -0.017626245 0.0035364095 -0.073794104 0.11962196 -0.07932687 -0.10653693
-0.07994662 0.027468633 -0.09877292 -0.11513321 0.08226943 0.07999778 -0.06895803 -0.071841694
0.10788026 0.049639355 0.06309766 -0.004085968 0.05898482 0.0069880188 -0.04173027 -0.042992562
00000000: e160 91bc 0c8c b83b b5cf 3e3c b10b 53bd
00000010: 7041 463d 7728 96bd fd70 09be dc27 5c3e
00000020: 14a6 09bc dd4a aa3d e5f1 663d 53f3 7dbd
00000030: 203e cb3d 84e9 b6bd e577 34be d5e0 2e3e
00000040: 0f26 11be 7579 74bd 0226 763c c1af c6bb
00000050: 9aef 003e 8c14 943d f0a5 263d e8a3 163d
00000060: 5623 a93b c257 70bd 498b 8abd 84ba cfbc
00000070: 92c5 df3c 374d f2bc 470a 3fbe 2f87 e9bd
00000080: de2c 4a3d 9e42 ccbc 2a52 30bd 5323 df3d
00000090: 505f aebe 1c71 303b d87c e33d ce38 adbc
000000a0: ae87 823e 28c9 92bc 090b 06bc 1059 6d3c
000000b0: b3f2 e0bc e8c3 543c 803a 03be 772a b1bc
000000c0: 3379 173d 25f5 37bc 8a22 403d c3f7 d1bd
000000d0: 9b35 05bd 563c 73bd c50c aebc 4637 b1bd
000000e0: e42b 8e3e 456c e23d 474d a63d a3bd dd3d
000000f0: 1342 a1be 34dd 22bd 08f5 823d c42a babd
00000100: 423c 18be 676b 99bc 357f 363e 7c2d 533b
00000110: 3ef6 8a3e df5c a0bd 7e80 41be 318d 3c3c
00000120: d9ef 103e e8ec d33d 72bc 4dbe e29a 29bd
00000130: 9e53 5bbd 224d 0a3b 72a7 d83d cebe ddbd
00000140: 3ec6 72be 2962 563e 8226 b5bc 4ee5 84be
00000150: 1950 d8bd db3c 2d3d 1e29 513d 8d4c 86be
00000160: 95b9 493e 8581 a8bd 1e13 193e a14f 28be
00000170: 5ebd 29bd 41de 4e3d 95b6 833e 64fc 64be
00000180: a6df 19bd e6e8 813d 06e6 293d fd5a e63d
00000190: 8113 253e 0e24 ccbd 693a 09be 3bce d63d
000001a0: e610 e13d fce2 bbbd b850 29be 1576 b93d
000001b0: b0d8 cdbd 6fe4 11be 479f 42be 416a a8be
000001c0: ec96 083d 467f 06be 1704 6bbd 8d0f 3f3e
000001d0: f913 f7bd 09a0 383e 7592 e73d fa2e b8bb
000001e0: ab48 fc3d 7cae 26be f988 2f3c f51b 8c3d
000001f0: ad32 09bb 3e12 8e3c 4064 fabd 05f9 0c3e
00000200: 9707 d9bd aa94 ba3b 5376 7bbe 580d 3b3d
00000210: bf1d 95be ecd7 853b b492 2d3e c012 27be
00000220: 7257 d5bd d1bc b8bc aa97 57be b382 753c
00000230: 6b2f e7bd a849 bbbd f1a1 14be d803 4bbd
00000240: e135 abbb a0c3 07be fe9c 08be c835 cfbc
00000250: 7bb9 ca3d 5a7e 013e 1d0b 983e c9fc 8ebd
00000260: 077f f43d 2472 673d ed1b 973e a81a 8ebd
00000270: 31e4 353e ccc6 5dbe 9389 89bd dea2 fb3d
00000280: d7cd 243e 2abe a7bd bb83 e3bd 5ab7 2bbd
00000290: 2be4 35bd adca bd3b a0e6 77be 4cab b73d
000002a0: 776a 8dbd b655 653d 1f85 b43d 7fb0 273d
000002b0: 2ade 21bc 2538 fa3d 8c30 32be 2a55 193e
000002c0: 1a4b 2d3d 4098 0f3e 6e69 a0bc 8e15 11bd
000002d0: 37ac f1ba 718f febd bc5e 9a3d 8f58 083e
000002e0: fcd2 f5bd 87f4 7b3e 3653 223c 6551 febd
000002f0: 1a7e f53d 12f6 063e 49a9 e3bd bd30 8dbd
00000300: 9224 02be bf24 d3bd 2731 8c3d ca43 65bd
00000310: 8d04 783e 61e6 72bd 1041 b93c 936f 23be
00000320: 8500 1a3d 7c06 0b3e e2c2 d63d 6066 b4bd
00000330: ddd3 89bd 60ff 94bd f95d 06be 840c 953d
00000340: a844 973d f0d8 b1bd 6eff c8bc e873 303d
00000350: 6c90 f03c 3ea8 b5bd b799 113d b28a 5cbd
00000360: d180 17bd d208 3c3d 51db ccbb d6b7 b8ba
00000370: 44ba ca3d 820e bf3c 0ea7 0abd 8841 cfbd
00000380: 58e4 27be 619d e5bd 38db d5bd 5c11 e7bd
00000390: 7265 9f3d bbf1 e2bd 1dd4 2dbd 8f0d c53d
000003a0: 3935 cebd 52bb 5a3d ea64 90bc 1bc3 673b
000003b0: 5d21 97bd 5cfc f43d 2076 a2bd 0930 dabd
000003c0: 0ebb a3bd e605 e13c 7549 cabd f6ca ebbd
000003d0: e07c a83d e0d5 a33d de39 8dbd bd21 93bd
000003e0: 53f0 dc3d a352 4b3d 5939 813d 95e3 85bb
000003f0: 119a 713d c0fb e43b 5ced 2abd f818 30bd

convs.0.bias f4 [10]
-0.0075272727 -0.011070341 0.03533987 -0.04430361 -0.049616717 -0.08896991 -0.049409404 0.057456467
0.03422305 0.027260154
00000000: 57a7 f6bb 6060 35bc 8ac0 103d b477 35bd
00000010: e63a 4bbd db35 b6bd 8461 4abd 7957 6b3d
00000020: 782d 0c3d b050 df3c

convs.1.weight f4 [10, 1, 2, 100]
0.07105094 -0.02088769 -0.015953891 -0.028071387 -0.12351386 0.08984007 0.102773875 0.043358248
-0.020517617 0.030333411 0.08407601 0.05749824 -0.066186994 0.09703467 0.047381934 0.008422876
0.09155032 0.19643146 -0.069097795 0.04678855 0.13463926 0.0870787 -0.043333415 0.026436403
-0.17796817 -0.021646695 -0.10566924 0.19299078 0.16299927 -0.1132089 0.15627857 0.06353792
0.08052779 0.04082663 -0.06349261 0.09072967 -0.12541306 -0.02567797 0.012112263 0.107712574
-0.030830504 -0.005125639 -0.042256247 0.04312196 0.120855555 -0.25190794 0.17547406 0.011709919
0.17930073 0.045712084 -0.017941967 -0.017760769 -0.12983069 -0.11823804 -0.043045253 0.069780946
-0.05094672 0.1008368 -0.010491593 0.07867447 0.16338554 -0.016613798 -0.09494155 -0.15445921
0.014150012 -0.24849218 0.06197506 0.020322347 -0.14317748 -0.030458475 0.07572781 -0.0017432919
0.103809014 0.015531325 -0.1635823 -0.103674926 -0.14733823 0.16470769 0.013609297 -0.040835273
-0.008447877 0.11753766 -0.019851878 -0.11807667 0.039912213 -0.065381035 0.10374163 -0.104085706
-0.1461743 0.0027381894 -0.013262119 0.02424501 0.1565714 -0.0114080105 -0.060957845 0.07757213
-0.019434715 0.11635482 -0.035490077 0.028673049 0.09354217 0.1548171 -0.06399373 -0.0016770292
0.076082006 0.06611236 0.020482974 -0.030681374 -0.06615341 -0.09834112 -0.12889116 -0.03808953
-0.12907676 0.053403497 -0.019458717 0.05946916 0.027622236 0.07256699 -0.1277921 0.06667048
0.07180363 0.058128547 -0.017226353 -0.028259406 0.043305814 -0.015949534 -0.08352573 -0.08402764
0.014850809 0.21002033 0.10415346 -0.07881492 0.025979366 -0.032556206 0.0502764 0.037172947
0.07934803 0.098392084 0.037083387 -0.20548521 0.017157145 -0.05713352 -0.11903423 -0.09132204
0.10073084 0.034472864 -0.04101196 0.20448864 -0.17794573 0.10980399 -0.092685156 0.031081347
-0.047678906 -0.016007705 -0.12977645 0.004944947 -0.09321411 0.015374055 -0.027340123 -0.064321026
0.046700217 0.016162602 -0.100522004 -0.06546141 -0.08704334 0.04416198 -0.037208367 0.045228858
0.12096345 0.08923776 -0.020107554 -0.06795259 0.023166755 0.16693594 -0.15606523 0.022340346
-0.2233406 -0.11497807 0.0064889705 0.10542256 0.055709794 -0.04306489 -0.013431256 0.05127209
0.0019426736 0.061406333 -0.079737045 0.04859921 -0.18425027 0.02699073 0.0024551754 -0.0077270246
-0.0034897362 0.02478551 0.07190913 -0.19679123 -0.15607089 0.12611201 0.04241265 -0.050782215
-0.045458496 0.075005524 -0.16059832 -0.1025788 -0.049306646 -0.035676632 -0.13354282 -0.025507389
0.17700766 -0.07155884 0.01315608 0.021609448 0.076575264 -0.14568812 0.08199125 0.09418971
-0.19873016 0.060152058 0.14852075 0.070313014 0.26474977 -0.08022874 -0.13877216 -0.15505242
-0.20101106 -0.17847036 -0.016977208 -0.011822514 0.25763643 -0.005043678 0.05271356 -0.06871984
-0.037366495 -0.12605232 -0.055289373 0.14782657 -0.049631678 -0.04209349 0.019422714 -0.09518151
-0.10883154 -0.021155413 -0.013282954 0.002132746 0.09808251 -0.22636457 0.14048937 -0.03794357
-0.0123425955 0.07454521 0.04567278 -0.00060818356 -0.017619705 -0.06063484 0.027792664 0.039283138
00000000: 2883 913d a91c abbc bcb1 82bc f7f5 e5bc
00000010: d6f4 fcbd 12fe b73d 1c7b d23d 6b98 313d
00000020: 9014 a8bc c67d f83c 0b30 ac3d 4683 6b3d
00000030: 0c8d 87bd 1dba c63d 8f13 423d 1a00 0a3c
00000040: bc7e bb3d 5425 493e 2583 8dbd 5aa5 3f3d
00000050: e0de 093e 5156 b23d 617e 31bd 2891 d83c
00000060: 4a3d 36be 6954 b1bc 1d69 d8bd 609f 453e
00000070: 48e9 263e 11da e7bd 7d07 203e 2b20 823d
00000080: c1eb a43d d339 273d 6a08 82bd 7ad0 b93d
00000090: 486c 00be 9b5a d2bc 8372 463c 6998 dc3d
000000a0: 4190 fcbc faf4 a7bb e314 2dbd a7a0 303d
000000b0: 1e83 f73d 14fa 80be 79af 333e f6da 3f3c
000000c0: 9c9a 373e 983c 3b3d 08fb 92bc 087f 91bc
000000d0: 56f2 04be c926 f2bd 3850 30bd 50e9 8e3d
000000e0: 82ad 50bd 8683 ce3d eee4 2bbc 1520 a13d
000000f0: 8a4e 273e a919 88bc b770 c2bd 8e2a 1ebe
00000100: 74d5 673c bc74 7ebe 8fd9 7d3d 0d7b a63c
00000110: 1e9d 12be 0d84 f9bc 2f17 9b3d 2b7f e4ba
00000120: d299 d43d 1977 7e3c 1e82 27be 8553 d4bd
00000130: d5df 16be 22a9 283e 87f9 5e3c e342 27bd
00000140: f768 0abc 96b7 f03d 68a0 a2bc 2ed2 f1bd
00000150: fd7a 233d 7ee6 85bd 7e76 d43d e32a d5bd
00000160: b7ae 15be 3273 333b 5c49 59bc 799d c63c
00000170: 4154 203e aae8 3abc efae 79bd 23de 9e3d
00000180: 8d35 9fbc 704b ee3d 0b5e 11bd bee3 ea3c
00000190: 0a93 bf3d 6088 1e3e 250f 83bd c3cf dbba
000001a0: e2d0 9b3d eb65 873d e9cb a73c 8157 fbbc
000001b0: 707b 87bd 1267 c9bd 0bfc 03be c403 1cbd
000001c0: b32c 04be a0bd 5a3d e367 9fbc ef95 733d
000001d0: 0748 e23c 019e 943d efdb 02be 888a 883d
000001e0: c80d 933d 3318 6e3d 481e 8dbc 4580 e7bc
000001f0: 7061 313d 99a8 82bc 8a0f abbd af16 acbd
00000200: cf50 733c 920f 573e 694e d53d b769 a1bd
00000210: aed2 d43c a859 05bd a0ee 4d3d a942 183d
00000220: 3881 a23d ca81 c93d c0e4 173d b76a 52be
00000230: 248d 8c3c d604 6abd 38c8 f3bd 0d07 bbbd
00000240: f84b ce3d 6b33 0d3d 28fc 27bd 7865 513e
00000250: 6837 36be eae0 e03d b7d1 bdbd 4f9e fe3c
00000260: f54a 43bd 9722 83bc 1ee4 04be 3909 a23b
00000270: 0ae7 bebd 76e3 7b3c 65f8 dfbc beba 83bd
00000280: ba48 3f3d 6f67 843c 7bde cdbd a210 86bd
00000290: c743 b2bd 31e3 343d cd67 18bd e541 393d
000002a0: afbb f73d 49c2 b63d 99b8 a4bc ba2a 8bbd
000002b0: 35c8 bd3c 41f1 2a3e 90cf 1fbe 1a03 b73c
000002c0: 66b3 64be 9f79 ebbd 6ea1 d43b c8e7 d73d
000002d0: f42f 643d cf64 30bd c50e 5cbc af02 523d
000002e0: 4fa1 fe3a 3585 7b3d 2d4d a3bd f70f 473d
000002f0: 1aac 3cbe aa1b dd3c 02e7 203b fb32 fdbb
00000300: 0fb4 64bb fb0a cb3c 1845 933d a483 49be
00000310: 0cd1 1fbe 8223 013e e3b8 2d3d 0301 50bd
00000320: b032 3abd 7f9c 993d e373 24be d514 d2bd
00000330: c4f5 49bd a921 12bd 73bf 08be dff4 d0bc
00000340: 7f41 353e 718d 92bd 998c 573c 4c06 b13c
00000350: 7ed3 9c3d 442f 15be 07eb a73d 89e6 c03d
00000360: eb7f 4bbe 0162 763d d315 183e 4500 903d
00000370: 488d 873e f74e a4bd 4a1a 0ebe 10c6 1ebe
00000380: d8d5 4dbe efc0 36be c913 8bbc 38b3 41bc
00000390: ece8 833e 7045 a5bb 2dea 573d fdbc 8cbd
000003a0: 9c0d 19bd dc13 01be 1c77 62bd d95f 173e
000003b0: 964a 4bbd 396a 2cbd 621c 9f3c 86ee c2bd
000003c0: 12e3 debd 1e4e adbc bfa0 59bc 8ac5 0b3b
000003d0: 7cdf c83d 1dcc 67be 72dc 0f3e b86a 1bbd
000003e0: 9938 4abc 29ab 983d 6213 3b3d 826e 1fba
000003f0: 3357 90bc 3d5c 78bd 71ad e33c 5be7 203d

convs.1.bias f4 [10]
-0.056614712 -0.052383974 -0.068704106 -0.05344915 -0.0025496753 0.019795902 -0.0034455233 0.03100069
-0.03921748 -0.021237034
00000000: d4e4 67bd 9490 56bd bdb4 8cbd 7fed 5abd
00000010: 7418 27bb 042b a23c 4ace 61bb 29f5 fd3c
00000020: 82a2 20bd 4af9 adbc

convs.2.weight f4 [10, 1, 3, 100]
0.0961661 -0.013099158 0.025186908 0.10050794 0.0017356309 -0.0015677132 -0.10389937 0.12593733
-0.0057595274 -0.0034745159 -0.057003327 0.101683795 -0.042771243 0.03813904 -0.19120045 0.0387995
0.0752919 -0.07503709 0.11705164 -0.0066310344 0.026868034 -0.16785564 -0.08607693 -0.05571002
-0.009004461 0.087308556 0.11520204 0.006773294 -0.07326394 -0.02910754 -0.028463325 0.034694843
0.12722631 -0.027117625 0.10090175 0.040567543 -0.00904436 -0.07651148 0.0726318 0.062880754
-0.08872576 0.16977532 0.08183562 -0.03410161 0.0945671 0.03906519 -0.12926167 0.088482596
0.10857205 0.10292609 -0.03308902 -0.04750046 0.10050891 -0.037179984 -0.049119 0.013957074
-0.026371583 0.1343431 -0.12252963 -0.05318196 0.10023799 -0.11449966 0.016916886 0.06493517
-0.11803552 -0.08277026 -0.12221434 0.03325749 -0.109553255 0.11181876 0.09871971 -0.16484065
0.058382284 0.087236606 0.05306709 -0.075574845 0.03962417 0.022014316 0.0077645653 -0.063294366
-0.06381068 -0.027567346 0.12597145 -0.024466995 0.030242387 -0.0751838 -0.055143192 0.122954786
0.055492703 -0.0025656028 0.13615222 0.104990594 0.02006323 -0.16797803 0.12420155 0.031226939
-0.03453703 -0.052285526 -0.045462232 0.0006357346 -0.04009181 0.0068576653 0.04769375 -0.09226384
-0.020738887 0.01264565 -0.07760728 -0.03438614 0.0583412 0.09094412 0.12377339 0.13076715
-0.16849175 0.06317677 0.05350476 -0.0053629437 0.10755995 0.013854625 -0.020584654 -0.004028978
0.028582266 0.011240123 -0.08051656 -0.005386759 -0.10244894 -0.0076352456 0.026936498 0.0120528955
0.07671024 0.047083538 0.030102154 0.016499178 0.025853848 0.04101905 0.03143413 0.08424396
-0.09295577 -0.032971684 -0.049635034 -0.045444988 0.01698417 -0.048245538 0.033232078 0.009066668
0.026576372 0.033318575 -0.10547212 0.18992531 0.16573684 0.11606696 0.010026811 -0.0050441567
0.04322008 -0.0831436 -0.029545069 0.054052163 0.026398929 0.049515918 -0.061352704 -0.078364156
-0.04413351 -0.06500756 0.049036104 0.08162061 -0.12435328 0.036134973 -0.003759048 0.050856464
-0.05697686 0.13380189 0.14830415 -0.07633878 0.086243175 -0.07683418 -0.081742845 0.031168198
0.056257315 -0.071948655 -0.006847441 0.05276826 0.062958226 0.023306077 0.0262588 -0.07328787
0.032918807 -0.07153271 0.014718833 -0.109098785 -0.05291876 0.04049432 -0.0030997442 0.071981885
-0.048215326 0.060205515 0.114215985 -0.0176734 0.08747053 -0.03191347 -0.04589101 -0.0739704
0.017068533 0.13208646 -0.0716577 -0.12405597 -0.0971092 0.04674247 0.083774574 -0.005209161
0.10807178 0.07251065 0.0069428757 -0.06274423 0.03396083 -0.31349906 -0.13980462 0.04300223
0.07094114 -0.14446734 0.029762074 0.08721192 -0.10732655 -0.010174484 -0.032521855 0.02399464
-0.15618338 -0.0685698 0.008635036 0.110909685 0.0055757035 0.122204475 -0.026014263 0.05332926
0.057371587 -0.07927277 -0.1759964 0.04288407 -0.035766244 -0.023711752 0.06937634 -0.1059459
-0.11743582 -0.015001842 -0.024368048 -0.06472663 0.13413195 0.06786417 0.13135962 0.03588334
-0.07781621 0.019336514 0.03118096 0.05586292 -0.11979089 -0.07032502 0.018784348 0.024397023
00000000: bbf2 c43d da9d 56bc c654 ce3c 1bd7 cd3d
00000010: 1c7e e33a ba7b cdba 31c9 d4bd b7f5 003e
00000020: 6bba bcbb b4b4 63bb 527c 69bd 983f d03d
00000030: e630 2fbd af37 1c3d 0dca 43be 39ec 1e3d
00000040: a432 9a3d 0cad 99bd c5b8 ef3d 2649 d9bb
00000050: 5a1a dc3c 59e2 2bbe 1a49 b0bd 3130 64bd
00000060: 7287 13bc d4ce b23d 0cef eb3d 82f2 dd3b
00000070: 680b 96bd f072 eebc eb2b e9bc 2e1c 0e3d
00000080: 9d47 023e c825 debc 94a5 ce3d 272a 263d
00000090: cc2e 14bc 0db2 9cbd fbbf 943d a0c7 803d
000000a0: dab5 b5bd 95d9 2d3e 6f99 a73d 21ae 0bbd
000000b0: 65ac c13d d202 203d 2c5d 04be 5d36 b53d
000000c0: 065b de3d eaca d23d 5a88 07bd d88f 42bd
000000d0: 9ed7 cd3d 0a4a 18bd 0131 49bd 36ac 643c
000000e0: 3809 d8bc 3d91 093e d1f0 fabd 54d5 59bd
000000f0: 9349 cd3d cc7e eabd 4895 8a3c bbfc 843d
00000100: 9bbc f1bd 7483 a9bd 834b fabd 0139 083d
00000110: 755d e0bd 3c01 e53d 8f2d ca3d fdcb 28be
00000120: 4322 6f3d 1ba9 b23d e15c 593d fcc6 9abd
00000130: f44c 223d 5e57 b43c e56d fe3b 7aa0 81bd
00000140: 2caf 82bd ead4 e1bc a9fe 003e 026f c8bc
00000150: e2be f73c f7f9 99bd d4dd 61bd b8cf fb3d
00000160: 514c 633d ac23 28bb 7d6b 0b3e 4f05 d73d
00000170: a55b a43c 6f02 2cbe 625d fe3d a3cf ff3c
00000180: b376 0dbd 5929 56bd 9b36 3abd 6da7 263a
00000190: 4f37 24bd 44b6 e03b 865a 433d d3f4 bcbd
000001a0: 99e4 a9bc b32f 4f3c 91f0 9ebd 7bd8 0cbd
000001b0: 2ff7 6e3d e940 ba3d e77c fd3d d3e7 053e
000001c0: 1a89 2cbe d362 813d cf27 5b3d a2bb afbb
000001d0: 6448 dc3d 82fe 623c 26a1 a8bc 8405 84bb
000001e0: 5b25 ea3c 7e28 383c dee5 a4bd 6983 b0bb
000001f0: c0d0 d1bd 1531 fabb eea9 dc3c 8279 453c
00000200: 421a 9d3d abda 403d cb98 f63c 4929 873c
00000210: 73cb d33c 9703 283d 13c1 003d 1988 ac3d
00000220: 985f bebd 510d 07bd 1b4e 4bbd 8624 3abd
00000230: 6322 8b3c 1d9d 45bd 5c1e 083d 5d8c 143c
00000240: b1b6 d93c 0f79 083d c401 d8bd c87b 423e
00000250: ebb6 293e 84b4 ed3d 7e47 243c 7449 a5bb
00000260: 8a07 313d 3147 aabd 8008 f2bc cd65 5d3d
00000270: 9142 d83c 34d1 4a3d f94c 7bbd 637d a0bd
00000280: 57c5 34bd af22 85bd 15da 483d b528 a73d
00000290: efac febd 4402 143d 5c5a 76bb de4e 503d
000002a0: 9160 69bd 5d03 093e 0bdd 173e 8257 9cbd
000002b0: 43a0 b03d 3d5b 9dbd cb68 a7bd 7354 ff3c
000002c0: 126e 663d d159 93bd 8060 e0bb 8823 583d
000002d0: 3ef0 803d 63ec be3c b21c d73c f317 96bd
000002e0: dfd5 063d be7f 92bd 4327 713c 2f6f dfbd
000002f0: 57c1 58bd 5fdd 253d 1425 4bbb 3d6b 933d
00000300: 6f7d 45bd 0f9a 763d 12ea e93d cec7 90bc
00000310: c023 b33d b3b7 02bd 36f8 3bbd cb7d 97bd
00000320: 4fd3 8b3c ac41 073e 46c1 92bd 0e11 febd
00000330: 30e1 c6bd 0875 3f3d 0192 ab3d 9cb1 aabb
00000340: bd54 dd3d 7780 943d 1081 e33b 0c80 80bd
00000350: 831a 0b3d f382 a0be f128 0fbe 1b23 303d
00000360: 9749 913d 3fef 13be 98cf f33c 2a9c b23d
00000370: 06ce dbbd e1b2 26bc a335 05bd 6890 c43c
00000380: 89ee 1fbe 536e 8cbd f779 0d3c 9e24 e33d
00000390: 64b4 b63b 5746 fa3d dd1b d5bc c86f 5a3d
000003a0: 78fe 6a3d c359 a2bd 6638 34be 35a7 2f3d
000003b0: a07f 12bd 263f c2bc 2f15 8e3d 2afa d8bd
000003c0: 3182 f0bd 49ca 75bc 809f c7bc 658f 84bd
000003d0: e359 093e 5ffc 8a3d 2383 063e 69fa 123d
000003e0: 1b5e 9fbd 9c67 9e3c 366f ff3c 84d0 643d
000003f0: ed54 f5bd 9006 90bd a2e1 993c 44dc c73c

convs.2.bias f4 [10]
-0.030657431 -0.054731682 0.01089254 -0.05275421 -0.06839454 -0.042907126 0.032812864 -0.023758685
-0.06917856 -0.054723267
00000000: 4b25 fbbc 542e 60bd a076 323c cc14 58bd
00000010: 7012 8cbd 62bf 2fbd c866 063d 93a1 c2bc
00000020: 7dad 8dbd 8125 60bd

convs.3.weight f4 [10, 1, 4, 100]
0.026255844 -0.017289499 -0.050805673 0.078218855 0.1360374 -0.08256609 0.03358965 -0.014571214
-0.07624571 0.004645496 0.110747084 -0.0100090485 -0.019738952 0.069906324 -0.055586684 0.021347739
-0.03621981 0.027167555 -0.101245254 0.009744249 0.08188453 -0.051852454 0.08044998 -0.030235082
-0.08028667 -0.025145069 0.100149505 0.1282979 -0.038158257 0.06804573 0.04992413 -0.09123103
0.038677562 -0.04093258 -0.09253447 -0.038643833 0.028576074 0.053799886 -0.07952287 0.07187038
0.059021894 -0.0073791114 -0.021038985 0.09630749 0.101297304 -0.14512025 -0.09121724 -0.08315717
0.035472482 0.103036545 -0.0035679704 0.11354074 -0.03217685 -0.14028414 0.016514601 0.12033939
0.13064875 0.12520726 -0.17478408 -0.12246672 -0.07669307 -0.06050653 0.055150338 -0.14637214
-0.03556278 -0.16306718 -0.14570571 0.08274986 0.031771615 0.09071756 0.052555162 0.022991903
-0.12907845 0.13424833 0.045128852 -0.052150305 -0.070316814 0.026678361 0.15554748 -0.058064934
-0.11943363 0.04060424 0.02683416 -0.060679298 0.1939827 0.09728485 -0.06583111 0.1381347
0.04695043 -0.054329168 0.059840694 -0.030750398 -0.010987473 -0.0707347 -0.03217841 -0.06962521
-0.0065018963 -0.021152884 -0.054023366 -0.06597858 0.017080251 -0.08756856 -0.05381388 -0.024858868
-0.07722604 -0.08090218 0.049143106 -0.01184532 -0.0008335972 0.0719554 -0.013980468 0.04789524
-0.060007434 0.03702714 -0.03377106 0.024653139 0.05147081 -0.048416164 -0.005143862 -0.024644544
-0.016270299 -0.05524229 -0.029042194 -0.018648248 -0.042467684 -0.027165696 0.049049728 0.022951217
-0.034051035 -0.033880778 -0.019640034 0.06664305 -0.032967266 -0.0033930654 -0.038405113 0.05867116
-0.087615386 0.025854642 -0.07532815 -0.036959372 -0.018699426 0.045350976 -0.011613488 0.06623015
0.050277136 0.034718953 -0.0024738545 0.0133501645 0.088332236 0.014193839 -0.014401135 -0.037290752
-0.04893595 -0.07632346 0.016602706 0.06861982 -0.034155346 -0.06525725 -0.020617606 0.018035972
0.04663788 -0.085064165 0.014051834 0.098977104 -0.022412622 -0.035897076 -0.018589884 0.02237168
0.047872316 0.05543134 0.0062188194 0.02258265 0.0014502706 -0.0056481757 -0.08319698 0.025823327
-0.037700113 -0.027822655 -0.029561363 -0.013386769 -0.034094498 0.0036676095 0.1291956 -0.013177824
0.03968507 -0.017275665 -0.014192678 -0.08480171 -0.02042858 -0.026784228 0.02612971 -0.015448773
0.027930412 0.078688964 0.01941603 -0.04232415 0.02860588 -0.015983395 -0.02907405 -0.08192657
-0.08471941 0.06484863 0.06547736 -0.043757197 -0.052523974 -0.12696315 0.01714454 0.02568537
0.063505605 -0.0038017905 0.07209627 -0.030839004 0.0017891483 -0.08570364 -0.047023866 -0.012900967
-0.07952587 0.014957141 -0.0025813102 -0.10386554 -0.016332598 -0.0076957284 -0.04251054 0.05778674
-0.12109827 0.09369698 -0.004218771 0.010627205 0.074196406 0.105224036 0.14745513 0.064386904
0.045576945 -0.027680125 -0.12660246 -0.014739147 -0.028666364 0.117167644 0.030893346 -0.032960437
-0.077920295 0.09009626 0.042344812 -0.068287514 0.11510985 -0.010118445 0.09039138 -0.018675014
-0.019331243 0.0003348403 0.03722685 0.003333211 -0.06306027 -0.060788292 -0.12584023 0.046853863
00000000: 7f16 d73c b5a2 8dbc 9c19 50bd 3531 a03d
00000010: 634d 0b3e 6918 a9bd 4d95 093d 1abc 6ebc
00000020: b626 9cbd 3f39 983b 5ecf e23d fefc 23bc
00000030: 95b3 a1bc 0c2b 8f3d ddae 63bd 74e1 ae3c
00000040: 395b 14bd 7e8e de3c ac59 cfbd 58a6 1f3c
00000050: 14b3 a73d 3d63 54bd f6c2 a43d 90af f7bc
00000060: 566d a4bd 08fd cdbc 2f1b cd3d 8660 033e
00000070: d54b 1cbd 8f5b 8b3d 3f7d 4c3d 56d7 babd
00000080: 5d6c 1e3d eca8 27bd b682 bdbd ff48 1ebd
00000090: 5f18 ea3c 455d 5c3d e3dc a2bd c730 933d
000000a0: f1c0 713d 79cc f1bb f359 acbc dc3c c53d
000000b0: f674 cf3d 679a 14be 1bd0 babd 4e4e aabd
000000c0: 984b 113d d304 d33d 9cd4 69bb 0c88 e83d
000000d0: dfcb 03bd a5a6 0fbe a149 873c 8074 f63d
000000e0: c9c8 053e 5536 003e 99fa 32be d5cf fabd
000000f0: 4211 9dbd b2d5 77bd 52e5 613d 94e2 15be
00000100: 47aa 11bd 15fb 26be e133 15be c278 a93d
00000110: f422 023d 21ca b93d 1544 573d 8459 bc3c
00000120: 242d 04be 6578 093e 08d9 383d 8f9b 55bd
00000130: 4302 90bd 948c da3c d747 1f3e 7fd5 6dbd
00000140: 9e99 f4bd a250 263d 50d3 db3c db8a 78bd
00000150: 67a3 463e 483d c73d 76d2 86bd 2f73 0d3e
00000160: 184f 403d 4388 5ebd 841b 753d 42e8 fbbc
00000170: cd04 34bc 5bdd 90bd 82cd 03bd a997 8ebd
00000180: dc0d d5bb d048 adbc 9b47 5dbd c71f 87bd
00000190: e2eb 8b3c 2557 b3bd f16b 5cbd d3a4 cbbc
000001a0: b028 9ebd 0bb0 a5bd 484a 493d e012 42bc
000001b0: c385 5aba 5a5d 933d 550e 65bc cd2d 443d
000001c0: 5bca 75bd c5a9 173d 8653 0abd 61f5 c93c
000001d0: 0ed3 523d 0750 46bd d88d a8bb 5be3 c9bc
000001e0: 4a49 85bc bd45 62bd e5e9 edbc 36c4 98bc
000001f0: 98f2 2dbd 988a debc 5ee8 483d 3104 bc3c
00000200: 1979 0bbd 92c6 0abd 23e4 a0bc 277c 883d
00000210: af08 07bd 315e 5ebb ae4e 1dbd 2c51 703d
00000220: b26f b3bd 1dcd d33c a545 9abd b662 17bd
00000230: 8a2f 99bc f2c1 393d 8046 3ebc aca3 873d
00000240: 66ef 4d3d 7635 0e3d 6420 22bb a6ba 5a3c
00000250: 88e7 b43d 478d 683c bdf2 6bbc 30be 18bd
00000260: 1071 48bd 794f 9cbd 6602 883c 8c88 8c3d
00000270: 7ae6 0bbd 98a5 85bd 41e6 a8bc 2dc0 933c
00000280: 5d07 3f3d 1f36 aebd aa39 663c 82b4 ca3d
00000290: ad9a b7bc d008 13bd d049 98bc d044 b73c
000002a0: c315 443d f90b 633d 3dc7 cb3b 40ff b83c
000002b0: 0217 be3a 5514 b9bb 2e63 aabd 718b d33c
000002c0: 6f6b 1abd 56ec e3bc ac2a f2bc 2e54 5bbc
000002d0: aca6 0bbd 475c 703b da4b 043e cde7 57bc
000002e0: d08c 223d b285 8dbc 6888 68bc 85ac adbd
000002f0: d659 a7bc 996a dbbc f90d d63c da1c 7dbc
00000300: 52ce e43c ae27 a13d 5e0e 9f3c 175c 2dbd
00000310: e156 ea3c 9cef 82bc b42c eebc 1ec9 a7bd
00000320: 5f81 adbd 5ccf 843d fe18 863d bf3a 33bd
00000330: 6123 57bd a102 02be b572 8c3c 206a d23c
00000340: 3a0f 823d 7627 79bb 36a7 933d 14a2 fcbc
00000350: db81 ea3a 6485 afbd 199c 40bd 945e 53bc
00000360: 76de a2bd cc0e 753c 332b 29bb 75b7 d4bd
00000370: f1cb 85bc 732c fcbb 881f 2ebd cab1 6c3d
00000380: 5f02 f8bd 34e4 bf3d 9e3d 8abb ba1d 2e3c
00000390: 49f4 973d b37f d73d 7afe 163e 48dd 833d
000003a0: e4ae 3a3d 6ec1 e2bc 13a4 01be 777c 71bc
000003b0: b9d5 eabc 97f5 ef3d 0b14 fd3c 8601 07bd
000003c0: ad94 9fbd 6384 b83d c171 2d3d 53da 8bbd
000003d0: b7be eb3d d6c7 25bc 1e1f b93d 58fc 98bc
000003e0: 8e5c 9ebc 818d af39 2e7b 183d 0072 5a3b
000003f0: be25 81bd 25fd 78bd 43dc 00be d6e9 3f3d

convs.3.bias f4 [10]
0.025003599 -0.041526362 -0.03818917 -0.039735615 -0.009558436 -0.014959182 0.019709643 -0.07773061
0.014455578 0.012112147
00000000: 59d4 cc3c 8c17 2abd 3f6c 1cbd d0c1 22bd
00000010: fd9a 1cbc 5b17 75bc 1e76 a13c 3a31 9fbd
00000020: 17d7 6c3c 0772 463c

fc.weight f4 [1, 40]
-0.110840544 0.2707051 -0.054902446 -0.19272429 -0.27285522 0.18635714 -0.21883006 0.28189313
0.13653451 -0.21159917 -0.26111165 -0.12869214 -0.30404663 0.16356836 -0.3410624 -0.13953541
0.46506312 -0.33969462 0.10089118 0.19388129 -0.2145563 0.26363522 -0.22446096 0.24416241
0.19669443 0.16048476 -0.12870573 0.11913558 -0.22678721 0.33453226 -0.40136743 0.2786749
0.32504764 0.28451517 0.40215012 -0.36756963 -0.31630993 0.2023966 -0.42035395 0.39090976
00000000: 5e00 e3bd dc99 8a3e 63e1 60bd 8459 45be
00000010: aeb3 8bbe 68d4 3e3e fd14 60be 4c54 903e
00000020: b4cf 0b3e 74ad 58be 6db0 85be dfc7 03be
00000030: 00ac 9bbe 777e 273e bb9f aebe 5fe2 0ebe
00000040: c11c ee3e 74ec adbe 09a0 ce3d d188 463e
00000050: a6b4 5bbe 32fb 863e 18d9 65be b605 7a3e
00000060: 446a 493e 1e56 243e 6fcb 03be 5bfd f33d
00000070: e83a 68be d047 ab3e 0880 cdbe 7aae 8e3e
00000080: a56c a63e f9ab 913e 9fe6 cd3e 1632 bcbe
00000090: 60f3 a1be 0e41 4f3e a238 d7be 5325 c83e
